Old_results/multinomial_logistic_regression.pth (torch, 67560 bytes, 2 tensors)

linear.weight f4 [64, 256]
00000000: 7375 293c 30c3 a03d dccb 743d 3b75 153d
00000010: 3641 923c e617 ca3d cf5f a03d d91c 9a3d
00000020: f566 903d 264e a63d 112d a43d e933 8f3d
00000030: fae2 d3bb 775c c33d e9c2 b63d 3b81 18bb
00000040: 21e4 663d dc95 643d 467d 82bc 1a5a 853d
00000050: 8ebb 4b3d a981 413d 3ee1 88bc 8666 f0bb
00000060: b896 993d e92d 343d 426a 963d e5f2 593d
00000070: e831 e93b 2855 ca3c b08d 0e3a b954 e2bb
00000080: 1831 c63c d7f7 d13d b671 c53d 0c54 92bc
00000090: 72c9 c73d 39d3 b43d 1d0b 87bc ba25 79bc
000000a0: b97c 9b3d 7405 1f3d 1bc7 003c b040 a93a
000000b0: 89c9 cd3d a111 48bc e683 26bb 419a 8b3d
000000c0: 9d9b 7d3d 211e 6d3c 6db5 ee3d 0494 3e3d
000000d0: 0ebc b33d f8d2 0c3d d30e 183d 088c 9e3d
000000e0: 5245 283d e892 44bc 4221 2e3d 8cdd 9f3d
000000f0: 0bd7 a93d a607 abbc 4e86 3b3c 82b7 5b39
00000100: 694e 2dbb 4071 9b3d e618 c7bb f3a2 ac3d
00000110: bce8 7f3d 39c1 b63c 8eee 7c3d 4f67 443d
00000120: aa47 763a 38a0 9f3d 3cfe b23d 9ba3 c0bc
00000130: 51e6 123d 252f 74bc e2a5 a73d 44b8 663d
00000140: 3ce1 eebb 4a0a 3d3d ded7 703d 1894 0e3c
00000150: 964d 72bc 7941 893d dd5e 0fbd da00 023c
00000160: 4565 04bc 04eb 953d 5b37 a23d 7876 79bc
00000170: fbbc ab3d e3fd ac3d 8df2 a23c cf6f 493d
00000180: 94ba af3d 794a c0bc 612f c43d f6bb 523d
00000190: 5ccc 5f3c bd5b ba3b 7d90 603c 5c19 e43c
000001a0: 0456 7dbc d0ae d73c 0af0 9c3c c51e 7f3c
000001b0: 972f 6f3d 7b1d 58bb 2d2d 0639 18ff be3c
000001c0: ddfb 9d3d 49d5 a53d 9fca 3c3d 73d5 d23d
000001d0: e363 673d da4d 9e3d 29e4 ab3d c710 d53c
000001e0: e90e f73c 4766 f73c 4674 b93d b09f cd3d
000001f0: 6541 d43c 6822 b83c 08d9 833d 788d c93d
00000200: 5a9b cbbd d170 41be 8294 1dbe 0bd1 62be
00000210: 338d 2abe 56a3 3dbe 2de3 b3bd edcf ff3d
00000220: da45 9e3d 506f 533e 30a5 64be 067d d2bd
00000230: b182 393d 8684 02be 33ba 153e fdb3 653e
00000240: 0fe9 163e 6d53 4abe 9a50 0fbe 8cc7 54be
00000250: 95ff 42be 93d6 69be e167 3fbe eae5 4d3e
00000260: 1f30 e2bd 5eb5 16be 1bfa f03d 4fb1 c1bd
00000270: 4669 e3bd a35a ec3d b716 60be 7a60 2dbe
00000280: ef33 f3bc 44fc 453e 9730 06be 612d 3ebe
00000290: 5ef1 3c3e 5069 133e 1d0a f43d 002c 4f3e
000002a0: 4c5b 2bbe 08a5 353e 82e7 5bbd 5e34 c2bd
000002b0: 4456 e23d 62b0 393e 5dff ddbd 5400 dbbd
000002c0: 2806 143e b576 5c3e 47f0 363e b878 48be
000002d0: 0bfb 2bbe 7530 1a3e 6a8d d9bd 26c5 513e
000002e0: 2a79 46be 6bb5 f4bd 45f2 25be 1f94 31be
000002f0: ef55 53be 5860 d2bd 34f6 b5bd 5b7e 5cbe
00000300: a7cf 42be 71dd 94bd 95c8 7d3e 6a46 3bbe
00000310: f477 c43d 24db 173e 2190 88be 39a7 6abe
00000320: e0cb 4abe 0a41 353e a7d8 503e 9b0f 0abe
00000330: ae4b 71be ecf6 0ebd 6755 d4bd 8e52 263e
00000340: 477d 48be 1929 5a3e 54e7 5bbe 9bea 1fbe
00000350: ef54 093e 1aa1 53be 9828 04be 6fae acbd
00000360: 19a5 653e 4a52 1cbd b87e 0fbe 933a 4c3e
00000370: d4a7 d2bd 162b a4bd 87e6 073e c029 13be
00000380: 899a ac3d f2cc 003e 9cc3 1a3e 3cee ea3d
00000390: 64c2 19be 7495 fa3d 5e8b 113e 359b 8abe
000003a0: 012a 5f3e a29f 97bc ad6c ff3d 409c d83d
000003b0: 86e3 37be 21ab 3e3e 98e4 a6bc e7c8 0fbe
000003c0: 28d5 c0bc 7aa8 6bbd 28f1 e7bd b531 513e
000003d0: e0a2 583e de9a 7cbd 86b7 f0bd 5e40 ddbd
000003e0: f03a 4ebe f21e c6bd 8377 563e 39c4 05be
000003f0: 3466 3ebe 6018 e6bd f615 113e 27dd 36be
0.0103429435 0.07849729 0.059764728 0.036488753 0.01785336 0.098678395 0.07830774 0.075250335
0.070508875 0.081203744 0.08016408 0.06992323 -0.0064662667 0.09539121 0.08923895 -0.0023270387
0.056369904 0.05580698 -0.015928876 0.06511326 0.049739413 0.047242794 -0.016708966 -0.0073364405
0.074994504 0.043989096 0.07344486 0.053210158 0.007116545 0.024698809 0.0005437983 -0.0069070724
0.024193332 0.1025235 0.09640829 -0.017862342 0.097552195 0.0882935 -0.016484791 -0.015206749
0.07592148 0.03882356 0.00785997 0.0012912955 0.100482054 -0.012211234 -0.0025408207 0.06816531
0.061915983 0.014472515 0.11655698 0.046527877 0.08776103 0.034380883 0.037123512 0.077415526
0.041081734 -0.011997916 0.042512186 0.078059286 0.08292969 -0.02087767 0.011445595 0.0002095383
-0.0026444441 0.0758996 -0.006075966 0.084295176 0.062477812 0.022308933 0.06175094 0.047950085
0.0009394834 0.07794231 0.087398976 -0.023515513 0.035864178 -0.014903818 0.081859365 0.056328073
-0.0072900336 0.04615239 0.058799617 0.0087023005 -0.014789006 0.06701941 -0.035002578 0.007934773
-0.008080785 0.07320216 0.079207145 -0.015225999 0.083856545 0.084468625 0.019891048 0.049178895
0.08580509 -0.023473011 0.09579349 0.051448785 0.013659563 0.0056872056 0.013706324 0.027844124
-0.015462402 0.026328474 0.019157428 0.015571301 0.058394995 -0.0032976556 0.00012796065 0.023314998
0.07714055 0.080973215 0.046091672 0.102946185 0.056491744 0.07729693 0.083931275 0.026008977
0.030158477 0.030200137 0.090553805 0.100402236 0.025910089 0.022477344 0.0643788 0.09841436
-0.0994174 -0.18890692 -0.15388682 -0.22150056 -0.16655426 -0.18519339 -0.08783565 0.124908306
0.07728167 0.20647931 -0.22328639 -0.102777526 0.045290653 -0.12745866 0.1462181 0.22431941
0.14737342 -0.19758387 -0.13995591 -0.20779246 -0.1904281 -0.2283576 -0.1869197 0.20107237
-0.110443346 -0.14717624 0.11766454 -0.09457647 -0.11104064 0.11540725 -0.21883665 -0.16931334
-0.02968785 0.19334513 -0.13104473 -0.18571998 0.1845145 0.14395642 0.119159915 0.20231628
-0.16734046 0.17738736 -0.05368758 -0.094826445 0.1105161 0.18133691 -0.10839722 -0.10693422
0.14455473 0.21529658 0.17865096 -0.195773 -0.16794984 0.15057547 -0.10622676 0.20485362
-0.19382158 -0.11948665 -0.162057 -0.1734166 -0.2063825 -0.10272282 -0.0888485 -0.21532576
-0.19024526 -0.07268799 0.24783547 -0.1828858 0.09593192 0.1482969 -0.26672462 -0.22915353
-0.19804335 0.17700592 0.20395146 -0.13482516 -0.23564026 -0.03490345 -0.10367852 0.1624243
-0.1957904 0.2130474 -0.21474963 -0.15616839 0.13411306 -0.20666924 -0.1290611 -0.08431708
0.22426261 -0.038164414 -0.14013183 0.1994422 -0.10285917 -0.080160305 0.13271533 -0.14371395
0.08427913 0.1257818 0.15113682 0.11471221 -0.1501556 0.12235537 0.1421332 -0.2707154
0.21793367 -0.018508736 0.124719 0.10576677 -0.17957887 0.18619968 -0.020372674 -0.14041482
-0.02353914 -0.05753372 -0.11325294 0.20429118 0.21155882 -0.06167113 -0.11753754 -0.10803293
-0.2013967 -0.09673871 0.20944028 -0.13063134 -0.18593675 -0.11235118 0.14168534 -0.178578

linear.bias f4 [64]
00000000: e158 efbd 27c8 eebd 1347 aabe d8dd bdbe
00000010: 930a 0cbe 44c2 37be 7387 6cbe 5107 7cbe
00000020: c81d 84be 9495 89be 1329 a1bd 8308 77be
00000030: be9b 4fbc e852 1f3c 7160 963e c6a7 f03e
00000040: 4d89 6b3d 3900 b63e 3b23 e1bd 025a 8f3e
00000050: ea9e bb3e 749e 08be da2c a4bd 3213 9cbd
00000060: acb0 d93d c512 5abd e1f2 a83c 3f3e 7b3e
00000070: 33a7 56be f5ba b33c a1af a1be b0d1 ccbd
00000080: 3d73 e9bd ddbc 61be b7d3 4abe 5cd6 07be
00000090: f032 dfbd 14cb 20be 1254 61be d129 58be
000000a0: ff15 18be fd86 fabd 3a2b 3bbe 1923 2bbe
000000b0: 96d9 51be 8703 07be ac1c cfbd a9d4 17be
000000c0: 81f4 ddbd e8ce 42be a925 2fbe 18fa 15be
000000d0: 5590 1dbe 8d91 46be 077d 1cbe d132 30be
000000e0: 56ec 10be de92 c7bd 6b9b 56be cb09 31be
000000f0: 0a34 16be 9217 cdbd e116 35be 6240 29be
-0.11686874 -0.1165927 -0.3325735 -0.37083316 -0.13675909 -0.179452 -0.23098545 -0.24612166
-0.2580397 -0.26871932 -0.078691624 -0.2412434 -0.012671409 0.009724356 0.29370454 0.47003
0.057503987 0.35547045 -0.10993048 0.27998358 0.3664468 -0.13341695 -0.08016367 -0.07620849
0.106294006 -0.053240556 0.020623626 0.24535464 -0.20962219 0.021939734 -0.31579307 -0.10000932
-0.11398933 -0.22044702 -0.19807325 -0.13265365 -0.108983874 -0.15702468 -0.22004727 -0.21109702
-0.14852141 -0.12232778 -0.18278208 -0.16712607 -0.20493159 -0.1318494 -0.101128906 -0.14827217
-0.10837651 -0.19024241 -0.1710421 -0.14646184 -0.1538709 -0.1939146 -0.15282069 -0.17206885
-0.14152655 -0.097448096 -0.20957725 -0.17288892 -0.14668289 -0.10014261 -0.17684509 -0.16528466
