Old_results/multinomial_logistic_regression_user_0.pth (torch, 67602 bytes, 2 tensors)

linear.weight f4 [64, 256]
000000 43 96 a9 3d df 88 ad 3d 9b 03 a4 3c 9d 66 b8 3d
       0.08280613 0.08473372 0.02002125 0.09003947
000010 c7 cc 90 3c a3 ff 39 3d c4 20 02 3b 81 6e 81 3d
       0.01767577 0.04540981 0.0019855956 0.06319905
000020 7c 88 b3 3d c6 60 71 bc 16 3c a7 3d eb af 3e 3d
       0.08766267 -0.014732545 0.08165757 0.046554487
000030 cd 93 99 3d 55 1b 45 3d 08 36 7e 3d c4 3d d2 3c
       0.07498894 0.04812177 0.062063247 0.025664218
000040 16 b6 99 3d 60 62 33 3d 5b e2 40 3b c5 80 51 3d
       0.07505433 0.04379499 0.0029431793 0.051148195
000050 71 bb e9 3b 16 29 99 3c e9 ef 14 3c 0b 76 8e 3d
       0.0071329405 0.01869635 0.009090402 0.06956109
000060 f4 61 80 bc b8 09 cf 3b a0 70 55 3c a7 81 0f bc
       -0.015671708 0.0063182972 0.01302734 -0.008758939
000070 11 9f 2e 3d c9 31 e8 bc c7 0c b0 3d e1 b1 f5 bb
       0.042632166 -0.028344052 0.08596187 -0.0074980115
000080 c4 47 b2 3d 29 3b 72 3d 53 20 68 3c 14 69 87 3d
       0.087050945 0.05913845 0.014167863 0.06611839
000090 c2 be 76 3d 67 b5 a3 3d 44 c2 25 3d 81 a8 85 3c
       0.060240515 0.07993584 0.04046847 0.0163157
0000a0 b1 c7 23 3d 7b b4 03 3d 66 37 5c 3d 98 8f b7 3d
       0.039985362 0.03215454 0.05376377 0.08962935
0000b0 87 f7 a9 3d 9b 3a d0 3b 5c 2b 97 3d 63 6f 40 3d
       0.08299165 0.0063546426 0.07381317 0.046981227
0000c0 a6 46 8e 3d d5 6a 12 bb 17 8a be bc 3c 7d 16 3c
       0.06947069 -0.002234151 -0.023259206 0.009185132
0000d0 0d 8b 50 bc 5b f7 b1 3d f2 97 4e 3d 40 19 82 3d
       -0.012728465 0.086897574 0.050437875 0.06352472
0000e0 32 fe 82 3d 10 90 03 3d 7a 20 ab 3d 8f dd 21 bc
       0.0639614 0.03211981 0.08355804 -0.009879484
0000f0 77 9a 32 3d 9d fa 3f bc 5d b7 67 3d ee 14 44 3c
       0.04360434 -0.011717466 0.056571353 0.011967881
000100 25 c4 63 3d 86 da 94 3c d2 22 aa 3d cf e6 76 ba
       0.05560698 0.018170606 0.08307423 -0.00094185484
000110 87 e8 f7 bb e3 ac 96 bb e6 d7 bc 3d f8 0c 5e 3d
       -0.007565561 -0.0045982464 0.09220867 0.054211587
000120 5c 57 be 3d 0d 55 6d bc 94 d1 ff bc 28 08 b4 bc
       0.09294006 -0.01448561 -0.031227864 -0.021976545
000130 b1 d6 69 bc 79 a7 74 3d 0a 66 6f 3d f0 28 b3 3d
       -0.014272378 0.059730027 0.05844692 0.087480426
000140 7d 27 92 3b 06 fa ed bb 2e 68 9b 3d a7 ee 0d 3c
       0.004460274 -0.007262471 0.0758823 0.008662856
000150 e5 6c 89 3d b4 8b 84 3c a7 e1 81 3d 9c 09 3b bc
       0.06710223 0.016179897 0.06341868 -0.011415865
000160 a4 fa 83 ba 86 b5 68 3d c2 24 63 3d 29 97 9b 3c
       -0.0010069204 0.05681374 0.055454977 0.018992977
000170 79 d4 93 3d a0 dd 8b 3d 7e 2f 62 bc da c3 e2 3a
       0.0721826 0.06829381 -0.013805268 0.00173008
000180 2d df c0 3d 3d 26 bc 3d 42 9f 11 3c f7 01 da bc
       0.094175674 0.09186981 0.008888068 -0.026612265
000190 06 c7 55 bb af 7c 48 3d 51 5a 16 3d 04 03 9c bb
       -0.0032619848 0.048947033 0.036707226 -0.0047611017
0001a0 9b c9 19 3d 78 45 19 bc d1 f0 9f bc 67 2f 46 bb
       0.03754578 -0.009354942 -0.01952401 -0.0030240656
0001b0 f1 62 b2 bc 27 a1 bb bb 11 91 b8 3d f7 a7 34 3d
       -0.021775695 -0.005725998 0.09012044 0.044105496
0001c0 57 4e 47 3d b6 f5 bc bc da 03 85 bc 06 ca 7c 3c
       0.048658695 -0.023066383 -0.016237188 0.0154290255
0001d0 5c 73 3d 3d 1a f3 91 bc 7d 03 a5 3b 90 63 33 bc
       0.046252593 -0.017816115 0.005035816 -0.0109490305
0001e0 4a 27 2d 3d 47 39 c8 3c ce 21 08 3d 36 bf ad bb
       0.042273797 0.024441374 0.033235364 -0.005302335
0001f0 df 2b e4 bb 83 b3 90 bb f0 36 31 3c 51 91 6a bc
       -0.0069632377 -0.0044159307 0.010816321 -0.014316873
000200 f9 a7 b4 bd 38 c1 04 be 14 1e 90 bc 97 61 95 3c
       -0.08821101 -0.12964332 -0.017592467 0.018235011
000210 53 5a 35 be 15 be bb 3c 78 aa 90 bd 98 0a 33 3d
       -0.17710237 0.022917787 -0.07063764 0.043711275
000220 22 f4 fb bd ed 1d ba 3d cb ed 99 3d a3 e4 1c be
       -0.12302424 0.09087739 0.075160585 -0.15321593
000230 73 40 c8 bd f1 91 2b be 6f 7a 1a 3e c5 86 8c bb
       -0.09777918 -0.16754891 0.15085767 -0.0042885267
000240 85 93 e4 3d cc ef 02 be 96 70 14 be 3e 38 40 bd
       0.111609496 -0.12786788 -0.14496073 -0.046928637
000250 5a 2c 61 bd 25 28 00 be 02 75 9b bd ea cf 01 3e
       -0.054973938 -0.12515314 -0.07590677 0.12676969
000260 bc d6 c5 bd 21 51 0c be 20 91 15 3e 08 29 31 be
       -0.09660098 -0.13702823 0.14606142 -0.17300808
000270 fc 3c 81 bd 34 ee 33 3e af 7f 07 3e 9a 0c da bd
       -0.0631046 0.17571336 0.13232301 -0.10646935
000280 e2 04 a6 3c 97 76 0b 3e 7f 48 03 3e 64 ee 55 bd
       0.020266 0.13619457 0.12820624 -0.0522293
000290 eb 85 37 3e 56 ff df 3d 42 78 2c 3d 36 2c 48 3e
       0.1792218 0.10937373 0.042106874 0.19548115
0002a0 86 63 9a bd d3 41 71 bd 2e ef d5 3d ff 2b a2 3d
       -0.07538514 -0.058900665 0.104460105 0.07918548
0002b0 7e 28 ad 3d 6b 9e c1 bd 09 42 d7 bd 5b 7c f7 bd
       0.08454989 -0.09454044 -0.10510642 -0.12084266
0002c0 ef 4a 23 bd 6a ef 2c 3e a8 85 e9 3d 97 3a 5d be
       -0.039866384 0.16888204 0.11402446 -0.21604382
0002d0 b5 a9 81 bb d4 b6 b2 bd 87 0e d5 bd e1 71 06 3e
       -0.003956998 -0.08726278 -0.104031615 0.13129379
0002e0 58 39 56 3d f2 bc 84 bd 5a c8 d3 bd 6c 71 4a bd
       0.05230078 -0.06481351 -0.103409484 -0.049424574
0002f0 24 b1 e3 bd 1d bc ea 3d 2c 56 e5 bd bd aa 15 be
       -0.11117771 0.11461661 -0.111980766 -0.14615913
000300 2e b0 a6 bd af e1 12 bd 4e 23 06 3e 4e 18 0d be
       -0.08139072 -0.03585976 0.13099405 -0.13778803
000310 37 1d f5 bd d9 97 e8 bd 7d aa da bd 39 c2 08 be
       -0.11968463 -0.11357088 -0.10677049 -0.1335534
000320 2c 58 48 be 1e 7c 07 3e 27 33 0c 3e d5 0f b4 3d
       -0.19564885 0.1323094 0.13691388 0.08792082
000330 5c ee 04 3e 1b 7c 5a 3d a5 5c b2 3d b8 24 46 be
       0.12981552 0.053341012 0.08709077 -0.19349945
000340 4a 22 11 be 60 81 90 bd ab 66 13 be c9 b8 f1 3d
       -0.14173236 -0.07055926 -0.14394633 0.11802823
000350 cc e1 65 be 54 79 1a be de eb df bd bb 4d 50 3c
       -0.22449416 -0.15085346 -0.1093366 0.012713845
000360 04 ca 19 3e 5c e9 d3 bd 1a ad 96 3d b1 0b 0f 3e
       0.15018469 -0.10347244 0.07357235 0.13969304
000370 96 f7 4a be 6d 35 95 3d c6 52 8e 3d ee e3 dd 3d
       -0.19821009 0.07285581 0.069493815 0.1083449
000380 d7 3a 6b 3d e7 eb 2f 3e 4c b5 ce 3d 90 ba e1 3d
       0.05742916 0.17179833 0.100931734 0.11021912
000390 39 c9 fd bd 73 b1 7c 3d 67 c0 bd 3c c6 af 04 3e
       -0.12391896 0.061692666 0.023163034 0.12957677
0003a0 f1 21 4e bd 9f af b9 3b 46 bf f1 3d 34 4b ee 3d
       -0.050325338 0.0056666876 0.11804061 0.116354376
0003b0 27 72 02 be 42 c5 a4 3d 12 5c 11 bd 24 00 36 be
       -0.12738858 0.080454364 -0.035488196 -0.17773491
0003c0 63 4d 7e bd 90 72 f9 bd 9d d3 1a be ce ad b5 3d
       -0.06208552 -0.12180054 -0.15119787 0.08871041
0003d0 2f ac e8 3d 09 70 2f be 67 9a db 3c 15 95 d1 3c
       0.113609664 -0.17132582 0.026807023 0.025583783
0003e0 66 29 17 be 0c 69 95 bd 41 6e ac bd b4 c6 26 be
       -0.14761886 -0.07295427 -0.08419467 -0.16286737
0003f0 1a f5 17 be c0 ce 2f bd 03 69 a0 3d 49 81 b3 bd
       -0.14839593 -0.04292178 0.078325294 -0.087648936

linear.bias f4 [64]
000000 be b7 d5 bd f7 24 c9 bd 7e 5b 7a be 23 60 79 be
       -0.10435437 -0.098215036 -0.24448964 -0.2435308
000010 66 80 d1 bd b7 41 7e bd f6 c5 ab be fb f3 e6 bd
       -0.10229568 -0.06207439 -0.3354947 -0.11277004
000020 3a 43 26 be a3 82 25 be 1a 2f 18 be 7c 16 52 be
       -0.16236582 -0.16163115 -0.14861718 -0.2051639
000030 50 95 43 3d 01 a7 85 bd 34 9b 5e 3e 0e dc b1 3e
       0.047749817 -0.06525994 0.21738893 0.347382
000040 05 2b 0f 3e 71 b9 74 3e 94 ee 7a bc 83 cc 04 3e
       0.13981254 0.23898865 -0.0153156705 0.1296864
000050 16 27 8f 3e 8a 0f b5 bd 07 58 94 be 5e b8 c9 bc
       0.27959508 -0.088408545 -0.2897341 -0.024624046
000060 82 7c eb bd ed 36 04 bd 92 ef 7d bd 05 9b 20 bc
       -0.11498357 -0.032278944 -0.06199605 -0.009802585
000070 9b 34 be bd 7b a7 08 be e7 68 73 bd 9b 84 eb bd
       -0.092873774 -0.13345139 -0.059426215 -0.11499902
000080 58 7a 43 be 2a c7 af bd 83 89 27 be 40 eb 13 be
       -0.19089639 -0.085829094 -0.1636105 -0.1444521
000090 55 5e 12 be be fe 4c be c2 b5 f3 bd 2d d3 36 be
       -0.14293797 -0.20019051 -0.11899902 -0.17853995
0000a0 d5 10 47 be 83 88 c2 bd 86 fe d9 bd 95 6d 30 be
       -0.19440015 -0.09498694 -0.106442496 -0.17229302
0000b0 d6 9b 43 be 5e 02 c5 bd da c4 f4 bd 48 40 3f be
       -0.19102415 -0.09619592 -0.11951609 -0.18676865
0000c0 b7 2d 49 be 33 41 31 be f7 a8 35 be 33 14 11 be
       -0.19646345 -0.17310028 -0.17740236 -0.14167862
0000d0 e1 8c 06 be a3 26 4f be 97 a9 f7 bd cb 07 f0 bd
       -0.13139679 -0.20229582 -0.120928936 -0.117202364
0000e0 9d be 55 be 8d 77 c0 bd 68 f6 33 be 6c 49 d7 bd
       -0.20873494 -0.093978025 -0.17574465 -0.10512051
0000f0 cf fb 9f bd 0c 75 cc bd 93 e2 df bd 42 55 15 be
       -0.078117006 -0.099832624 -0.109318875 -0.14583305
